model.pt (torch, 183279 bytes, 10 tensors)

weight f4 [6, 1, 5, 5]
0.18419293 -0.0496805 -0.056782708 -0.19193393 -0.0947341 -0.041222736 -0.0050777523 -0.0702885
-0.22875315 0.13555185 0.13215813 -0.2694983 -0.034017224 0.0008463396 0.13076183 -0.10958416
-0.19117622 -0.14711796 0.11020992 -0.011290632 -0.02900496 -0.07373961 -0.15231073 0.13263586
0.20648694 0.119858384 0.014673642 -0.07678346 -0.48819435 -0.15844019 -0.12704632 0.09005812
-0.0012529887 -0.56988555 -0.70679986 0.016294092 0.29268783 0.60072756 0.0051005236 -0.32733783
-0.024806611 0.35165784 0.46598163 0.57936335 0.3979359 -0.5235858 -0.19191076 -0.068740696
0.07151859 0.32878444 0.27889422 -0.36822987 -0.6837929 -0.32210758 -0.016048878 0.43073738
0.26037148 -0.014976012 -0.20547068 -0.078146234 0.38566652 0.67055994 0.4874765 0.22422323
0.17314573 0.1293166 0.29718235 0.17643377 0.1410979 -0.197471 -0.183295 -0.07445741
0.030750204 -0.16816771 -0.3160925 0.009677998 -0.17732586 -0.024038961 0.054363053 0.07891552
-0.057534378 -0.31068426 -0.27822715 -0.30627754 -0.17612565 -0.1292084 0.06273055 -0.3132505
-0.30069396 -0.15426749 -0.1575336 -0.088241875 0.04144797 0.039086178 -0.014926038 0.22633831
0.16190132 0.15501933 -0.0022460641 0.074279845 -0.111507885 -0.20250422 -0.32264417 -0.52401274
-0.051220153 -0.24061899 -0.39126506 -0.4821139 -0.039634563 0.3286176 -0.4935817 -0.28106135
-0.07475429 0.25899792 0.60379595 -0.047298897 0.22257702 0.46717045 0.6066497 0.32825768
0.08591043 0.29463676 0.40311363 0.21542701 -0.23637798 0.35907578 0.39743063 0.4757258
0.27516156 0.27425 0.14607619 0.15873721 0.15081447 0.20910108 0.28367493 -0.14506173
-0.41786575 -0.45176804 -0.3495368 -0.26849723 -0.091565825 -0.3592666 -0.6015792 -0.32752764
-0.14284812 -0.23544091 0.120935895 0.016637633 -0.102137625 -0.21569471
00000000: 129d 3c3e c87d 4bbd fc94 68bd 548a 44be
00000010: f403 c2bd 2cd9 28bd 4663 a6bb 6bf3 8fbd
00000020: 443e 6abe 1bce 0a3e 7654 073e aefb 89be
00000030: a555 0bbd e4dc 5d3a 6ee6 053e a96d e0bd
00000040: b3c3 43be 17a6 16be bdb5 e13d 58fc 38bc
00000050: cf9b edbc cb04 97bd 58f7 1bbe b2d1 073e
00000060: 5071 533e 5078 f53d b769 703c a640 9dbd
00000070: 9cf4 f9be 253e 22be 6e18 02be 6470 b83d
00000080: 533b a4ba 05e4 11bf d6f0 34bf 307b 853c
00000090: 2edb 953e 48c9 193f 4b22 a73b d398 a7be
000000a0: 3c37 cbbc 7f0c b43e 2595 ee3e 2851 143f
000000b0: 41be cb3e b809 06bf 4184 44be ecc7 8cbd
000000c0: 5778 923d 6f56 a83e 39cb 8e3e a088 bcbe
000000d0: 0d0d 2fbf 49eb a4be f078 83bc 9c89 dc3e
000000e0: 694f 853e f25d 75bc e866 52be 220b a0bd
000000f0: 1576 c53e d1a9 2b3f 8596 f93e c69a 653e
00000100: 1d4d 313e 926b 043e 4928 983e 0eab 343e
00000110: f87b 103e d635 4abe afb1 3bbe 207d 98bd
00000120: dae7 fb3c 2834 2cbe e0d6 a1be 7790 1e3c
00000130: e994 35be 5bed c4bc cbab 5e3d 769e a13d
00000140: 2ba9 6bbd 0212 9fbe ca73 8ebe 69d0 9cbe
00000150: 485a 34be 354f 04be e078 803d 5f62 a0be
00000160: 8ff4 99be 4cf8 1dbe 7d50 21be 28b8 b4bd
00000170: 59c5 293d d418 203d 578c 74bc 3bc5 673e
00000180: 76c9 253e 63bd 1e3e b432 13bb 0820 983d
00000190: 3f5e e4bd 445d 4fbe 9e31 a5be b325 06bf
000001a0: 39cc 51bd d364 76be e553 c8be a2d7 f6be
000001b0: da57 22bd 9140 a83e beb6 fcbe 46e7 8fbe
000001c0: c718 99bd 609b 843e 5f92 1a3f 7dbc 41bd
000001d0: 3beb 633e f730 ef3e 654d 1b3f 6411 a83e
000001e0: cff1 af3d a1da 963e e964 ce3e e698 5c3e
000001f0: 120d 72be c8d8 b73e 077c cb3e 5592 f33e
00000200: fae1 8c3e 7f6a 8c3e ff94 153e 028c 223e
00000210: 1c6f 1a3e 981e 563e d73d 913e 108b 14be
00000220: 80f2 d5be 244e e7be 7df6 b2be 7878 89be
00000230: dd86 bbbd cbf1 b7be 1801 1abf b4b1 a7be
00000240: c746 12be 6c17 71be 3dad f73d a54b 883c
00000250: 882d d1bd 13df 5cbe

bias f4 [6]
-0.40386948 0.00088079483 0.07755739 -0.38840216 0.009057205 -0.121004105
00000000: fbc7 cebe 24e5 663a 69d6 9e3d a6dc c6be
00000010: ac64 143c 00d1 f7bd

weight f4 [16, 6, 5, 5]
0.11504455 0.32349214 0.03783845 -0.046458505 0.13568218 0.044950496 0.15661363 0.10942537
0.08046927 0.0815985 -0.07566696 -0.0214964 0.08520788 -0.031122055 0.036150225 -0.12477809
-0.07408139 -0.086499654 -0.008723109 -0.06919673 0.05447226 -0.013511252 0.067759104 -0.04357542
-0.015200719 -0.16326167 -0.7317671 -0.35329854 -0.028383097 -0.06796245 0.12392346 8.389925e-06
-0.0686477 0.18243842 0.03561969 0.19162585 0.18210195 -0.08444578 0.13159056 0.010558528
0.20756173 0.14176768 -0.18576136 -0.051271778 0.07261725 -0.16207474 -0.3901103 -0.4823056
0.033702116 -0.065155685 0.12668236 -0.15736967 -0.314212 0.26347402 0.109991126 0.08911944
-0.09709872 -0.31456947 0.26311922 0.15057182 0.2697426 0.18501885 0.046213895 0.31734094
0.27833897 0.22004479 0.07926002 0.06769739 0.12080322 0.05927754 0.068154074 -0.08249115
-0.03078934 0.06009773 -0.065235294 0.18420744 0.2606787 0.13762526 -0.06219564 0.023023583
0.112678304 0.09618622 0.11845408 -0.055078696 0.11983615 -0.038966775 0.111620076 0.13339445
-0.07809824 0.048967548 -0.017665174 0.09301758 -0.04637643 -0.19454433 -0.079098105 0.07203246
-0.053109434 -0.24552137 -0.2753457 0.025868682 -0.3658604 -0.27868322 -0.0752775 -0.19075769
0.05657929 -0.13251008 -0.22619468 -0.038813487 0.0054641403 0.05361193 -0.10925291 -0.03402332
0.04338393 0.052023917 -0.0030401023 -0.14608143 -0.12857264 0.085961565 0.043045614 -0.10441613
0.029850189 0.067021005 0.0854756 -0.020368505 -0.29484314 0.047155194 0.011234114 0.015981134
0.039287128 0.03638408 -0.107989766 -0.16089942 -0.15091299 -0.106911935 0.01932718 -0.02613598
0.0014286243 -0.2577529 -0.35777736 -0.10256352 0.21775655 0.044415276 -0.1652481 -0.19973437
0.08290836 0.15783446 0.029070605 -0.27373555 -0.19178197 -0.07520616 -0.0016028369 0.023240034
-0.09210779 -0.07335877 -0.034167558 -0.081993446 -0.11265858 -0.20951086 -0.34079912 -0.24493143
0.061757404 -0.010149217 -0.28180292 -0.24818102 -0.10673798 0.024789212 -0.029899495 0.06201191
0.0031070544 0.0570688 0.16338643 0.123833895 0.09901071 0.16507715 0.23677343 -0.00239676
-0.0490829 -0.11675673 -0.12229868 -0.075572364 0.21645816 0.34141302 0.07470702 -0.06883454
-0.08888033 -0.055690706 0.07001074 -0.07446756 -0.1586444 -0.14864415 0.15341245 0.14871342
0.09158155 -0.035454024 -0.1822208 0.026958773 0.17615254 -0.07786494 -0.2981025 -0.16593699
-0.23677029 -0.22134082 -0.123124845 -0.05782057 -0.024682974 -0.25670573 -0.15125428 -0.020643402
0.10116939 0.026214411 0.06676842 0.05735107 0.2788007 0.1318364 -0.08988928 -0.16114827
-0.16351472 -0.16801581 -0.058364112 -0.04266749 0.0646522 0.34614578 0.4301643 0.009221238
-0.037978664 -0.14687604 -0.07236081 -0.19299176 -0.11102417 0.12748027 -0.103236355 -0.106472924
-0.18920615 -0.21917093 -0.10571469 -0.0085401535 -0.15556394 -0.18938246 -0.25160155 0.08972765
0.17216882 0.25217918 0.19802119 0.06502722 0.057351775 0.10823522 0.04396241 0.11892661
0.044354267 0.117159374 -0.25595802 -0.078530975 -0.08061461 -0.013647991 0.06086569 -0.09108876
00000000: 7a9c eb3d c3a0 a53e 7efc 1a3d 464b 3ebd
00000010: 45f0 0a3e 031e 383d 535f 203e 691a e03d
00000020: 13cd a43d 1d1d a73d 47f7 9abd 3819 b0bc
00000030: 7881 ae3d aef3 febc 4212 143d a88b ffbd
00000040: fcb7 97bd bb26 b1bd 5feb 0ebc 04b7 8dbd
00000050: 4e1e 5f3d 4c5e 5dbc 49c5 8a3d 247c 32bd
00000060: 700c 79bc 112e 27be 1755 3bbf 8ce3 b4be
00000070: ab83 e8bc e62f 8bbd 95cb fd3d 74c2 0c37
00000080: 2a97 8cbd 23d1 3a3e f4e5 113d 9139 443e
00000090: ef78 3a3e e9f1 acbd adbf 063e adfd 2c3c
000000a0: 108b 543e 8c2b 113e 3a38 3ebe 5b02 52bd
000000b0: 5ab8 943d ecf6 25be 8abc c7be c2f0 f6be
000000c0: 3b0b 0a3d 5870 85bd 05b9 013e 8425 21be
000000d0: 65e0 a0be 11e6 863e 0743 e13d 4184 b63d
000000e0: b2db c6bd 400f a1be 90b7 863e 802f 1a3e
000000f0: b41b 8a3e 9575 3d3e c84a 3d3d 837a a23e
00000100: 7282 8e3e 6c53 613e 1453 a23d eea4 8a3d
00000110: ae67 f73d 01cd 723d 5d94 8b3d 1ff1 a8bd
00000120: ed39 fcbc 0a29 763d 159a 85bd e0a0 3c3e
00000130: ae77 853e a3ed 0c3e dbc0 7ebd f49b bc3c
00000140: e2c3 e63d 48fd c43d 0d98 f23d 339a 61bd
00000150: a86c f53d a09b 1fbd 1199 e43d 8e98 083e
00000160: f8f1 9fbd 3292 483d 8eb6 90bc 0080 be3d
00000170: 36f5 3dbd a136 47be 30fe a1bd c185 933d
00000180: 4789 59bd f469 7bbe 1dfa 8cbe 8fea d33c
00000190: 0e52 bbbe 91af 8ebe 172b 9abd fc55 43be
000001a0: b0bf 673d b9b0 07be 949f 67be e4fa 1ebd
000001b0: 880c b33b 2f98 5b3d fdbf dfbd 095c 0bbd
000001c0: 59b3 313d 0817 553d 743c 47bb 5f96 15be
000001d0: 8ca8 03be 9e0c b03d 9950 303d 20d8 d5bd
000001e0: 6288 f43c 4f42 893d d50d af3d dadb a6bc
000001f0: aef5 96be ce25 413d 4a0f 383c deea 823c
00000200: 8aeb 203d 7907 153d bd29 ddbd d1c2 24be
00000210: ef88 1abe a5f4 dabd 0954 9e3c 1f1b d6bc
00000220: ad40 bb3a 30f8 83be 982e b7be d30c d2bd
00000230: 93fb 5e3e cbec 353d cc36 29be 2b87 4cbe
00000240: dccb a93d 5b9f 213e 7a25 ee3c 1127 8cbe
00000250: 7e62 44be b005 9abd 4816 d2ba e261 be3c
00000260: 02a3 bcbd 1f3d 96bd 48f3 0bbd 2eec a7bd
00000270: 8bb9 e6bd 048a 56be 397d aebe 4ecf 7abe
00000280: 55f5 7c3d e748 26bc 7948 90be 2a23 7ebe
00000290: 7199 dabd bf12 cb3c c9ef f4bc 3300 7e3d
000002a0: b99f 4b3b f9c0 693d c64e 273e a09c fd3d
000002b0: 21c6 ca3d fc09 293e bc74 723e f612 1dbb
000002c0: 270b 49bd 271e efbd bb77 fabd afc5 9abd
000002d0: 35a7 5d3e b0cd ae3e feff 983d 20f9 8cbd
000002e0: e406 b6bd f01b 64bd ca61 8f3d 7382 98bd
000002f0: ad73 22be 2c36 18be 2718 1d3e 5548 183e
00000300: 1c8f bb3d 3d38 11bd 1798 3abe a5d8 dc3c
00000310: 5561 343e a777 9fbd e4a0 98be 63eb 29be
00000320: e973 72be 2ba7 62be e128 fcbd 43d5 6cbd
00000330: f333 cabc ef6e 83be 67e2 1abe 5a1c a9bc
00000340: e631 cf3d 9bbf d63c e2bd 883d f5e8 6a3d
00000350: f7be 8e3e 1f00 073e df17 b8bd 0d04 25be
00000360: 6770 27be 560c 2cbe 350f 6fbd 1bc4 2ebd
00000370: 5f68 843d 053a b13e 7f3e dc3e ad14 173c
00000380: 848f 1bbd ac66 16be e831 94bd a29f 45be
00000390: a460 e3bd 308a 023e 956d d3bd 7a0e dabd
000003a0: 42bf 41be 586e 60be f280 d8bd 00ec 0bbc
000003b0: 274c 1fbe 7aed 41be ebd1 80be 21c3 b73d
000003c0: 064d 303e a11d 813e 11c6 4a3e fe2c 853d
000003d0: b2e9 6a3d 6daa dd3d ee11 343d cb8f f33d
000003e0: d2ac 353d 41f1 ef3d ee0c 83be d9d4 a0bd
000003f0: 4619 a5bd d39b 5fbc 4d4e 793d be8c babd

bias f4 [16]
-0.06275511 -0.100936174 -0.087139346 0.012607347 0.0130543 -0.009293918 0.0005201949 -0.06664795
0.1714212 0.066211775 -0.024582792 0.039212544 0.043501962 0.006263741 0.044808883 -0.030818343
00000000: c085 80bd a0b7 cebd 1d76 b2bd 0c8f 4e3c
00000010: b4e1 553c 8445 18bc b05d 083a b87e 88bd
00000020: 0a89 2f3e 0a9a 873d da61 c9bc 559d 203d
00000030: 1d2f 323d 1140 cd3b 8589 373d c076 fcbc

weight f4 [120, 256]
-0.07207569 -0.024342526 -0.0032771197 -0.03620315 -0.048032586 -0.011944105 -0.057440944 0.018552527
0.0057539456 0.0016911745 0.023084048 -0.042570837 -0.06776963 -0.06319928 -0.045057483 -0.0033592111
0.006971039 0.043381076 -0.030430803 0.0008257722 -0.02312418 0.0074857697 0.011716502 0.022352297
0.020360693 -0.041168552 0.0006462089 0.030650074 0.011699464 -0.06570264 -0.01881978 -0.073887415
-0.08572442 -0.046845935 -0.015847882 -0.057045944 -0.043196134 0.042892713 0.0554797 -0.02385012
-0.04946425 -0.04169086 -0.051847506 -0.012380324 -0.012366767 -0.050615873 -0.056857716 -0.028372034
-0.003185995 -0.04298142 -0.027332889 -0.03522758 0.00238027 -0.0035968784 -0.0088767335 -0.0064630914
0.0006152499 0.006338522 -0.022524007 0.02264222 0.01816178 0.04556749 -0.039790966 0.0045718257
0.05978807 -0.05188594 -0.040683575 -0.03772174 0.054442167 0.023367792 -0.024983311 -0.0026983246
-0.041776996 -0.040367227 -0.050872706 -0.07711075 -0.054621667 0.013447489 -0.004182987 -0.012450516
-0.01113744 -0.04168516 0.016866187 -0.070669234 0.012352376 0.035433855 -0.07731503 -0.022672562
-0.017082755 -0.041232314 -0.059755243 -0.045808434 -0.06308652 -0.011546494 -0.0628338 -0.012625662
-0.031530175 0.037298307 0.03936248 -0.04296144 -0.010408488 -0.050354756 -0.07034862 0.039050486
-0.02056796 -0.024187116 -0.026391586 -0.0099148415 -0.06559615 0.026004411 -0.0582785 -0.025895074
-0.046994593 -0.023911925 -0.06685597 -0.029219858 0.0075380285 -0.08490881 0.03504564 0.019545218
-0.022637757 0.020029314 -0.03371512 0.021939997 0.027481573 -0.05368828 0.007071428 0.030759275
-0.021153321 -0.0036738955 -0.076910175 -0.054020498 -0.01666682 -0.060781818 -0.015612263 -0.061965473
-0.05081966 -0.054545477 -0.028706452 0.03995118 -0.041328322 -0.047551755 -0.016846599 0.021600226
0.032027006 -0.015669465 -0.010862084 -0.043363 0.0047450005 0.04712537 0.016555129 -0.06566518
0.013363798 0.008443442 0.03691365 -0.06445438 -0.036549117 -0.014010893 0.0353179 -0.085013926
-0.06624109 -0.010783489 -0.061593283 -0.026213434 -0.020975778 -0.053062633 0.012812897 0.0035801555
-0.0498917 0.017992225 -0.07751813 -0.024655318 -0.039470125 -0.037563253 -0.010665591 0.018734213
0.005035408 -0.064109154 0.022101 0.000297516 -0.067421235 -0.008107668 -0.007549237 0.01720686
-0.036128726 -0.009415284 0.0053002196 -0.015362019 -0.05036666 -0.058686964 0.011254435 -0.0050772
-0.08649631 -0.03754167 -0.07391917 0.0024508252 -0.009205997 0.03612099 -0.0104216635 0.0032495572
-0.041659575 -0.030498931 0.035517626 -0.06082631 -0.077811025 0.021390684 -0.042275775 -0.079767786
-0.007965676 -0.0013488883 0.035059042 0.0075373696 0.017711215 -0.054232776 -0.074498445 0.010524335
-0.07409329 -0.007900416 -0.07012372 -0.004082954 -0.043442722 -0.056757245 -0.07717677 0.018012568
-0.027579034 -0.028617775 -0.07698687 -0.008336142 -0.034195345 0.021127887 -0.014087502 0.016725907
-0.05752504 0.036480833 -0.025878208 -0.054160416 -0.022743706 -0.018918892 -0.033244424 0.018708484
-0.05790475 -0.013340794 0.009395653 -0.04808454 -0.018680725 0.0051038633 -0.05592282 -0.06977346
-0.048678927 -0.026895307 -0.054863915 0.0046366174 -0.041332122 -0.05941817 0.0345331 0.024677576
00000000: 6b9c 93bd fa69 c7bc f2c4 56bb c149 14bd
00000010: d1bd 44bd 35b1 43bc 3247 6bbd 78fb 973c
00000020: 988b bc3b 66aa dd3a c21a bd3c c25e 2ebd
00000030: ceca 8abd a06e 81bd 328e 38bd 3626 5cbb
00000040: 506d e43b 5bb0 313d 054a f9bc a278 583a
00000050: ec6e bdbc 304b f53b 92f6 3f3c 2a1c b73c
00000060: 78cb a63c 5ba0 28bd 5866 293a dd15 fb3c
00000070: 1caf 3f3c 1b8f 86bd f02b 9abc 4952 97bd
00000080: 4990 afbd 86e1 3fbd 6bd3 81bc 02a9 69bd
00000090: 6eee 30bd 45b0 2f3d af3e 633d 5461 c3bc
000000a0: 079b 4abd 09c4 2abd 0d5e 54bd d8d6 4abc
000000b0: fb9d 4abc 9752 4fbd a3e3 68bd 786c e8bc
000000c0: 20cc 50bb 490d 30bd 39e9 dfbc cc4a 10bd
000000d0: 4efe 1b3b 9bb9 6bbb b86f 11bc 57c8 d3bb
000000e0: b948 213a 60b3 cf3b 4484 b8bc 2d7c b93c
000000f0: 03c8 943c faa4 3a3d dafb 22bd 41cf 953b
00000100: 56e4 743d 5a86 54bd d2a3 26bd 1c82 1abd
00000110: c0fe 5e3d d06d bf3c cda9 ccbc 60d6 30bb
00000120: 5b1e 2bbd 1b58 25bd e65f 50bd 3eec 9dbd
00000130: f8ba 5fbd db52 5c3c 7011 89bb 40fd 4bbc
00000140: cf79 36bc 0fbe 2abd f52a 8a3c 08bb 90bd
00000150: 9f61 4a3c 1723 113d 5857 9ebd cfbb b9bc
00000160: 22f1 8bbc 37e3 28bd eac1 74bd a0a1 3bbd
00000170: 8133 81bd 822d 3dbc 02af 80bd dddb 4ebc
00000180: c925 01bd 1cc6 183d 8d3a 213d 56f8 2fbd
00000190: 5d88 2abc ca40 4ebd f012 90bd 67f3 1f3d
000001a0: 237e a8bc 0f24 c6bc 2b33 d8bc dc71 22bc
000001b0: 4657 86bd 3407 d53c 70b5 6ebd e821 d4bc
000001c0: 677d 40bd f1e2 c3bc c8eb 88bd 7c5e efbc
000001d0: 9101 f73b ace4 adbd 048c 0f3d 4b1d a03c
000001e0: d172 b9bc 8414 a43c de18 0abd 82bb b33c
000001f0: 0921 e13c 3ee8 5bbd 70b7 e73b e0fa fb3c
00000200: bb49 adbc bdc5 70bb 1583 9dbd 9944 5dbd
00000210: db88 88bc 5bf6 78bd 94ca 7fbc 82cf 7dbd
00000220: 4728 50bd 146b 5fbd cb29 ebbc d9a3 233d
00000230: e347 29bd a1c5 42bd e101 8abc f5f2 b03c
00000240: c02e 033d 405d 80bc e2f6 31bc 679d 31bd
00000250: f37b 9b3b 8806 413d 9f9e 873c 777b 86bd
00000260: d5f3 5a3c 5d56 0a3c c432 173d a800 84bd
00000270: 87b4 15bd f28d 65bc 81a9 103d c81b aebd
00000280: 69a9 87bd 3bad 30bc 3d49 7cbd 8ebd d6bc
00000290: 65d5 abbc 3458 59bd 2fed 513c 0ba1 6a3b
000002a0: 3d5b 4cbd 6e64 933c d3c1 9ebd f3f9 c9bc
000002b0: 6dab 21bd eddb 19bd bbbe 2ebc 7e78 993c
000002c0: 1000 a53b a94b 83bd 280d b53c ecfb 9b39
000002d0: 2514 8abd 06d6 04bc 975f f7bb 67f5 8c3c
000002e0: b7fb 13bd 9042 1abc 77ad ad3b fab0 7bbc
000002f0: 454d 4ebd be61 70bd 8664 383c a45e a6bb
00000300: fa24 b1bd 4bc5 19bd ef62 97bd 069e 203b
00000310: c0d4 16bc 9af3 133d a0bf 2abc 86f6 543b
00000320: 3ba3 2abd e5d8 f9bc ee7a 113d 0225 79bd
00000330: 635b 9fbd 843b af3c 5d29 2dbd 4b5d a3bd
00000340: 7782 02bc 2ecd b0ba 129a 0f3d 0afc f63b
00000350: 1c17 913c 3023 5ebd a492 98bd 436e 2c3c
00000360: 39be 97bd bf70 01bc 069d 8fbd 4dca 85bb
00000370: fff0 31bd 497a 68bd db0e 9ebd 188f 933c
00000380: 6ded e1bc d36f eabc 4bab 9dbd 5094 08bc
00000390: 6b10 0cbd 6414 ad3c 44cf 66bc c504 893c
000003a0: 609f 6bbd ed6c 153d 89fe d3bc 50d7 5dbd
000003b0: 0251 babc cbfb 9abc 4e2b 08bd 8942 993c
000003c0: 882d 6dbd 5893 5abc 3af0 193c 4bf4 44bd
000003d0: 5208 99bc 4f3e a73b 540f 65bd 63e5 8ebd
000003e0: 8e63 47bd 8c53 dcbc fcb8 60bd c4ee 973b
000003f0: df4b 29bd 7860 73bd 9472 0d3d a128 ca3c

bias f4 [120]
-0.08336678 0.013730231 0.0012395417 -0.019696973 -0.07632437 0.03022474 -0.027694978 0.010040201
0.08475584 0.0019497869 -0.037494503 -0.0154145695 0.08136918 0.02048363 -0.045611877 0.06322988
0.053610884 -0.011613244 0.0073053716 0.060064208 0.08409635 -0.050037727 -0.018802721 0.037279584
0.04223485 -0.05428319 0.13896178 -0.030083733 0.01145451 0.11094165 -0.055778787 -0.14770618
-0.10997589 -0.063634336 0.0160714 -0.015421989 -0.009572661 0.1010926 0.017057879 0.081670575
-0.014652051 0.0111248 0.005647486 -0.029984504 0.060836986 0.019331533 0.035211418 0.024514567
0.04496492 0.0015244256 0.09748122 -0.011686228 -0.04457202 0.080847345 -0.046431374 -0.03982345
-0.0501214 0.04867683 -0.063455276 0.101070456 0.037429992 -0.05527469 0.016881598 0.013191148
-0.034376703 0.02201501 0.0150268655 -0.040307928 0.026305033 -0.10890785 0.03064514 -0.025229745
-0.10042546 0.08079816 0.03249391 -0.03939552 0.039789833 0.059622332 -0.06699273 0.06489821
-0.10678889 -0.06363174 -0.11035084 0.09359254 -0.09864822 0.02838816 -0.06455987 0.073582456
-0.029518057 0.03379437 -0.03343991 0.04615384 -0.037462637 0.11347817 0.020160438 0.12846771
-0.06820354 -0.047117192 0.030975029 -0.057900872 -0.02428391 -0.015377193 -0.0041775582 0.032730997
-0.13493378 0.061331876 0.07310932 0.07901846 -0.029555077 -0.064661264 -0.03754812 0.062447578
0.08650699 -0.07120843 0.003609987 -0.0071224184 -0.07253583 0.02137351 0.015881598 0.06961953
00000000: 34bc aabd c3f4 603c 1e78 a23a 8c5b a1bc
00000010: f44f 9cbd e099 f73c 94e0 e2bc a87f 243c
00000020: 7894 ad3d fe8f ff3a d693 19bd 648d 7cbc
00000030: e2a4 a63d 49cd a73c 85d3 3abd ab7e 813d
00000040: 1697 5b3d 7a45 3ebc e661 ef3b e305 763d
00000050: b53a ac3d 5cf4 4cbd 2a08 9abc 7ab2 183d
00000060: 73fe 2c3d 0d58 5ebd ff4b 0e3e 2972 f6bc
00000070: b2ab 3b3c 6035 e33d 4c78 64bd 4a40 17be
00000080: 0a3b e1bd b852 82bd 2ba8 833c 83ac 7cbc
00000090: a6d6 1cbc a309 cf3d f7bc 8b3c e742 a73d
000000a0: 280f 70bc cb44 363c 8c0e b93b 10a2 f5bc
000000b0: 3430 793d 2a5d 9e3c d939 103d c6d2 c83c
000000c0: 232d 383d 3ccf c73a 3ca4 c73d 9877 3fbc
000000d0: 2791 36bd 4b93 a53d d32e 3ebd ea1d 23bd
000000e0: 194c 4dbd 5b61 473d d7f4 81bd 07fe ce3d
000000f0: 3150 193d b767 62bd 474b 8a3c af1f 583c
00000100: 96ce 0cbd d258 b43c 3e33 763c ed19 25bd
00000110: a77d d73c 140b dfbd 840b fb3c 9cae cebc
00000120: ddab cdbd 8179 a53d 5618 053d 325d 21bd
00000130: aafa 223d 8c36 743d 7c33 89bd 5ae9 843d
00000140: 22b4 dabd 5c51 82bd 9fff e1bd 72ad bf3d
00000150: 1408 cabd 498e e83c f737 84bd 66b2 963d
00000160: dacf f1bc f76b 0a3d 49f8 08bd cf0b 3d3d
00000170: 6c72 19bd 3e67 e83d 8127 a53c 0a8d 033e
00000180: 4cae 8bbd f5fd 40bd 58bf fd3c 7729 6dbd
00000190: 0def c6bc 9ff0 7bbc e6e3 88bb f010 063d
000001a0: 152c 0abe 2237 7b3d 57ba 953d 6ed4 a13d
000001b0: 7d1d f2bc 206d 84bd 0fcc 19bd 08c9 7f3d
000001c0: 942a b13d bad5 91bd 8895 6c3b 2d63 e9bb
000001d0: aa8d 94bd 8017 af3c 201a 823c af94 8e3d

weight f4 [84, 120]
-0.04083907 0.013931504 -0.07132141 -0.2810049 0.08268289 2.5809972e-05 0.11921701 -0.08677626
0.091723934 0.029518526 0.08399664 -0.15110657 -0.013193917 0.12263965 0.037944764 -0.106122956
0.08374802 -0.14910987 0.104973346 -0.024163362 0.079809174 0.078450814 0.28964216 0.03532643
-0.10371296 -0.03487779 -0.014135014 -0.03653715 0.26902616 0.14525683 -0.054644175 0.08487712
0.07046665 -0.09241566 0.051953446 0.050814487 -0.08080671 -0.029416518 -0.2562523 0.061387166
0.028308373 0.13751806 0.14342223 0.012070029 -0.20587294 0.010764406 -0.24609342 0.006622222
-0.016306326 -0.11917309 0.019248677 -0.047657892 -0.078674324 -0.4189799 0.027760627 0.095086165
-0.014091775 0.046562817 -0.087705135 0.13469557 -0.24974811 -0.057762004 0.2057099 -0.018789653
0.10535183 0.03013283 -0.009265291 -0.09804939 0.16141601 0.020160986 0.0062200855 0.12460711
-0.054334402 -0.012914175 0.097065985 0.014675822 -0.030867573 -0.058616262 -0.07189745 0.053657524
0.20470032 0.0035969294 0.101243466 -0.003571466 0.07129378 0.13287675 -0.008629217 -0.052496396
-0.060260676 0.095470466 -0.081511706 -0.03633121 0.21789435 -0.052679192 -0.138031 -0.075267926
-0.037461374 0.20136355 0.17446972 0.16198285 -0.056372944 -0.055146027 0.048904657 0.027145991
0.24763103 -0.109850205 -0.02890629 0.042815123 -0.05200106 -0.22151051 -0.12593876 0.032417137
0.18486582 0.01928199 0.039586037 -0.035547573 0.12349312 -0.06846017 0.0106039895 -0.05207076
0.011268555 0.020380666 0.0023044217 0.1977053 0.012768631 0.05181764 0.071323134 0.20891331
0.2680936 0.06965457 -0.034149278 -0.0015972904 -0.114121936 -0.054029364 0.15834218 0.050435524
0.21966547 -0.07869884 0.27532262 0.07409622 -0.06753106 0.04085676 0.02825505 0.14600173
-0.13384801 -0.07084702 -0.12269905 0.08759004 -0.1885387 0.013081537 0.14531961 0.064810455
-0.13149951 -0.05136952 -0.05608969 0.04791637 -0.08918571 -0.06463467 0.26729387 -0.08481715
0.060857438 0.08388454 -0.022960033 0.11892115 0.18215448 0.14958267 -0.17456146 0.17145602
0.199832 0.011004276 -0.051555485 0.09601321 0.09862119 -0.19441238 0.03673118 0.19970909
-0.024056045 0.012277394 -0.0708842 -0.14941265 0.11370029 0.04222604 0.05117929 -0.08396424
0.008850663 0.013811283 -0.030221548 0.077850275 -0.16076629 -0.21480498 0.012573739 0.01769443
-0.048948478 0.089490935 0.12918615 -0.028656628 0.19331296 -0.09391777 -0.06473476 -0.08677599
-0.042144816 -0.027692443 0.21862976 -0.22773305 -0.16566911 -0.08636253 0.21631473 0.03693452
0.17293178 -0.084184386 0.12317889 0.022701338 -0.03314151 -0.05794323 -0.051679105 -0.09798525
0.071537465 0.08181477 0.0027585744 0.03435728 0.0047390554 -0.05553478 -0.46862713 0.07705628
0.08577015 0.02355753 0.00068808894 -0.105055325 0.107064046 0.06348771 0.08611741 0.18370982
0.18769707 -0.042211186 -0.08473886 0.008094341 0.1339109 -0.16602808 -0.019155683 -0.03371735
-0.028161053 -0.022605978 -0.17525484 0.1835008 -0.012878676 -0.028082157 0.09658109 -0.26479226
0.027374689 0.013864704 0.08975139 0.027715065 -0.12384746 0.14044286 -0.18572135 -0.06804939
00000000: de46 27bd f740 643c f610 92bd e0df 8fbe
00000010: a655 a93d 7e82 d837 0c28 f43d c0b7 b1bd
00000020: c2d9 bb3d d6d0 f13c 6e06 ac3d aebb 1abe
00000030: 4d2b 58bc 7f2a fb3d f86b 1b3d fe56 d9bd
00000040: 1584 ab3d 42b0 18be 44fc d63d 3ef2 c5bc
00000050: fe72 a33d d2aa a03d fa4b 943e 72b2 103d
00000060: 7667 d4bd 03dc 0ebd 8c96 67bc fba7 15bd
00000070: ccbd 893e 35be 143e 92d2 5fbd 0ed4 ad3d
00000080: d250 903d 6c44 bdbd 23cd 543d da22 503d
00000090: fd7d a5bd e9fa f0bc 8033 83be 1c71 7b3d
000000a0: f6e6 e73c 89d1 0c3e 47dd 123e 5fc1 453c
000000b0: 5bd0 52be 315d 303c eaff 7bbe 39ff d83b
000000c0: d894 85bc 0511 f4bd 67af 9d3c ec34 43bd
000000d0: 0120 a1bd 8984 d6be 416a e33c 89bc c23d
000000e0: 30e1 66bc a7b8 3e3d c09e b3bd a3ed 093e
000000f0: f8bd 7fbe da97 6cbd 9ea5 523e c2ec 99bc
00000100: b3c2 d73d 20d9 f63c 72cd 17bc 1ece c8bd
00000110: 3d4a 253e a728 a53c dcd1 cb3b 0332 ff3d
00000120: c08d 5ebd fa95 53bc 88ca c63d dc72 703c
00000130: fedd fcbc 9b17 70bd f83e 93bd fec7 5b3d
00000140: f69c 513e 76ba 6b3b bc58 cf3d 420f 6abb
00000150: 7902 923d d810 083e 8f61 0dbc 7606 57bd
00000160: e6d3 76bd 0586 c33d 9cef a6bd 09d0 14bd
00000170: b21f 5f3e 23c6 57bd 0058 0dbe 1226 9abd
00000180: 1971 19bd 3f32 4e3e 31a8 323e d5de 253e
00000190: 51e7 66bd cde0 61bd 4050 483d 4561 de3c
000001a0: fd92 7d3e 25f9 e0bd e2cc ecbc e95e 2f3d
000001b0: 10ff 54bd a7d3 62be 17f6 00be d5c7 043d
000001c0: 774d 3d3e 44f5 9d3c f824 223d 559a 11bd
000001d0: f6e9 fc3d d834 8cbd 5bbc 2d3c 2648 55bd
000001e0: bf9f 383c 5bf5 a63c c805 173b 4273 4a3e
000001f0: 8533 513c bc3e 543d dd11 923d 5fed 553e
00000200: 9043 893e 0ea7 8e3d 1de0 0bbd 2c5c d1ba
00000210: c3b8 e9bd e54d 5dbd 7424 223e 7b95 4e3d
00000220: fcef 603e dc2c a1bd 16f7 8c3e c2bf 973d
00000230: b94d 8abd 6b59 273d 2277 e73c 7a81 153e
00000240: 740f 09be 3e18 91bd a449 fbbd 6862 b33d
00000250: 4a10 41be f153 563c aace 143e 58bb 843d
00000260: cfa7 06be d968 52bd 4ebe 65bd f543 443d
00000270: ffa6 b6bd 2f5f 84bd beda 883e 9db4 adbd
00000280: a645 793d a8cb ab3d ae16 bcbc ef8c f33d
00000290: b486 3a3e 332c 193e 3dc0 32be 2b92 2f3e
000002a0: c3a0 4c3e 474b 343c d82b 53bd 93a2 c43d
000002b0: e8f9 c93d 0a14 47be 6f73 163d 8a80 4c3e
000002c0: 2f11 c5bc 1f27 493c bc2b 91bd a1ff 18be
000002d0: b3db e83d 36f5 2c3d 60a1 513d 72f5 abbd
000002e0: 5f02 113c b848 623c 2e93 f7bc f76f 9f3d
000002f0: eb9f 24be d6f5 5bbe 1502 4e3c e9f3 903c
00000300: 337e 48bd 0647 b73d 6049 043e 4ec1 eabc
00000310: d5f3 453e f657 c0bd a893 84bd 9cb7 b1bd
00000320: 0ba0 2cbd 43db e2bc 7be0 5f3e da32 69be
00000330: 2aa5 29be d7de b0bd 9c81 5d3e a748 173d
00000340: 0715 313e dd68 acbd 3745 fc3d 28f8 b93c
00000350: 64bf 07bd e155 6dbd 78ad 53bd 7eac c8bd
00000360: 3c82 923d 818e a73d 33c9 343b 38ba 0c3d
00000370: 144a 9b3b 7078 63bd e5ef efbe afcf 9d3d
00000380: 43a8 af3d b9fb c03c de60 343a 3f27 d7bd
00000390: 6544 db3d d805 823d 535e b03d 6d1e 3c3e
000003a0: a933 403e a3e5 2cbd 918b adbd 209e 043c
000003b0: f01f 093e 4403 2abe 61ec 9cbc 341b 0abd
000003c0: 02b2 e6bc 2c30 b9bc 0176 33be a2e7 3b3e
000003d0: 1501 53bc 8d0c e6bc 4ecc c53d da92 87be
000003e0: e240 e03c c928 633c 94cf b73d b40a e33c
000003f0: bda3 fdbd 41d0 0f3e bd2d 3ebe 7b5d 8bbd

bias f4 [84]
0.013787681 -0.093353495 -0.027277263 0.026230462 -0.07459627 -0.015410594 -0.15201041 0.0141700655
0.0223862 -0.0022630778 0.09584989 -0.09166722 -0.14888419 -0.10735267 -0.12057549 -0.13278879
0.13469413 0.12700072 -0.12462774 -0.1230807 -0.05863265 0.12218028 0.100195855 -0.031957697
-0.054228228 0.10418323 0.08677198 -0.10875475 -0.059352376 0.13635385 -0.15151814 0.05831684
0.1883235 -0.044439886 -0.07517801 0.09341081 0.19200961 0.06815027 0.065368086 -0.11027117
0.06233736 -0.07579273 0.11611662 -0.022012297 0.16029322 0.014516433 2.1295626e-05 0.026212778
0.057811964 0.034282554 0.0009758734 0.057986826 0.022208318 -0.01018351 0.058283195 0.065136164
-0.06330256 0.0026378052 -0.061273433 0.04209776 0.032319937 -0.07702298 -0.058924485 0.037309337
0.15558137 -0.038891427 0.10739546 -0.0063133175 -0.08622246 -0.049568363 0.014099924 0.091093704
-0.024357207 0.09265877 -0.09164295 -0.04578212 0.12106686 0.112238675 -0.1604034 0.12520076
0.1354986 0.08755354 0.061540715 0.015771333
00000000: bae5 613c 1e30 bfbd 9174 dfbc 44e1 d63c
00000010: eec5 98bd b77c 7cbc 9ea8 1bbe 9029 683c
00000020: 4463 b73c 2550 14bb f24c c43d 06bc bbbd
00000030: 1975 18be b7db dbbd 48f0 f6bd c9f9 07be
00000040: 42ed 093e 7a0c 023e d43c ffbd bc11 fcbd
00000050: ca28 70bd a839 fa3d 7c33 cd3d 13e6 02bd
00000060: 6b1e 5ebd 045e d53d 82b5 b13d cfba debd
00000070: 7a1b 73bd 58a0 0b3e 9227 1bbe a4dd 6e3d
00000080: e0d7 403e 9906 36bd eef6 99bd 2b4e bf3d
00000090: 2b9e 443e 5e92 8b3d b4df 853d dad5 e1bd
000000a0: 7655 7f3d 3839 9bbd 8dce ed3d 2253 b4bc
000000b0: e823 243e 55d6 6d3c 02a4 b237 2ebc d63c
000000c0: 3dcc 6c3d dd6b 0c3d c1d1 7f3a 9883 6d3d
000000d0: 38ee b53c bdd8 26bc 5cba 6e3d 1c66 853d
000000e0: c6a4 81bd 07df 2c3b daf9 7abd b36e 2c3d
000000f0: e961 043d 39be 9dbd cd5a 71bd add1 183d
00000100: b950 1f3e 9e4c 1fbd 27f2 db3d f2df cebb
00000110: 6795 b0bd 3208 4bbd 5e03 673c 568f ba3d
00000120: c488 c7bc e2c3 bd3d 4daf bbbd 0886 3bbd
00000130: e7f1 f73d 64dd e53d ca40 24be a134 003e
00000140: 25c0 0a3e 454f b33d 1e12 7c3d e232 813c

weight f4 [10, 84]
-0.20794225 -0.135643 0.0047557103 0.000307859 0.13541234 -0.25742766 -0.11496678 0.034793057
0.04265456 -0.35654142 -0.21087658 -0.03132236 -0.05154483 0.09494724 0.21403287 0.1513748
0.055297997 -0.3086668 -0.13728255 -0.06708397 -0.09245219 -0.36278787 0.048861593 0.14080834
0.008652954 0.028390082 -0.13163754 0.008465237 0.058252994 -0.063563235 -0.13707289 0.11593193
-0.16721438 0.026484635 -0.2451699 0.35428432 -0.08321491 -0.2541444 -0.12706976 -0.06838061
-0.26892263 -0.026672268 -0.15875158 0.08034956 0.19588539 -0.05520216 0.010603461 0.1901036
0.15728484 -0.17339513 -0.0024995345 0.1156735 0.048254304 -0.0033345767 0.10152697 -0.21359229
-0.2512315 0.11641701 -0.078874454 0.0069177 0.09265862 -0.1867422 0.16163093 0.016027028
-0.1280491 -0.37366202 -0.121550836 0.17406122 -0.026323522 0.03349732 0.11048249 -0.12744361
0.010775235 -0.16190816 0.13336086 0.048235502 0.07951865 0.049128067 -0.36372995 -0.28960785
0.092654966 0.02206083 0.14159581 0.09753555 0.09994874 0.010156023 0.09719563 0.07039646
-0.20157255 0.04092489 0.0035617838 -0.07745443 0.24430957 -0.15789916 -0.28914812 -0.09474313
-0.17553945 -0.35154715 -0.24527895 0.08828039 -0.3733041 -0.027183194 0.18892896 -0.14758109
-0.24468455 -0.12254666 -0.300247 0.038960177 0.06898745 0.13057351 0.098224744 -0.13709813
0.23543005 0.015661612 0.05674871 0.04140308 0.10122492 -0.08248942 0.14112543 0.09211073
0.051919427 -0.19661011 0.023225488 -0.06533503 -0.15625139 -0.0697802 0.049796928 0.033930603
-0.30893502 0.05921361 0.11718586 0.089014776 -0.15945175 -0.12433004 -0.086900756 0.26567695
-0.098074816 -0.10241664 -0.24688606 0.06887643 0.04051505 0.09494005 0.1321722 0.027426569
-0.32338533 -0.016235355 -0.16244477 0.09429153 -0.07832286 0.11713294 0.21955791 -0.045266613
0.07937752 0.009748784 0.1853116 -0.18907343 0.104367726 0.08047811 -0.17963114 -0.17386426
-0.48246655 -0.20616667 0.09922018 0.003270922 -0.20179646 -0.027593907 -0.10590766 -0.27835706
0.0672372 0.10072125 0.21680567 0.15763395 0.1284187 0.19895399 -0.15107536 0.004706438
0.2111955 -0.064080164 -0.36605674 -0.15023862 0.017156415 -0.3570655 -0.3076779 0.2462272
-0.09262311 0.14475982 0.09459184 0.011051182 0.088175304 -0.08230554 -0.21235713 -0.006914913
0.08648568 -0.026427966 0.1360069 0.1855527 -0.00080438907 0.14720404 -0.28436723 0.022968095
0.08971059 0.0604481 -0.24651736 -0.0076119457 -0.04434666 0.09081462 -0.39416537 -0.11632358
0.016724756 0.09703601 -0.09908059 -0.073788024 -0.06312588 0.18911731 0.008306269 -0.31809056
0.12292031 -0.19176504 -0.07806871 -0.062331643 0.029753065 0.022110045 0.18676502 -0.064386874
-0.03919962 0.028721945 -0.40435806 -0.06176355 0.065443575 0.002828811 0.08165391 0.093279846
-0.026382592 -0.29944113 -0.42922437 -0.13454902 -0.062405307 0.03403125 0.033281814 0.1432304
-0.061859194 0.07254451 0.032937467 -0.12531234 0.04873665 0.05921689 0.09531368 -0.17631622
-0.3799615 0.112597965 -0.15122105 0.059617396 0.14440556 -0.084179804 -0.13356787 0.1601178
00000000: d0ee 54be 00e6 0abe cad5 9b3b 2368 a139
00000010: 88a9 0a3e 8fcd 83be b473 ebbd 2a83 0e3d
00000020: 8cb6 2e3d 998c b6be 08f0 57be e04b 00bd
00000030: ac20 53bd b373 c23d 6f2b 5b3e ff01 1b3e
00000040: 2780 623d 9309 9ebe cc93 0cbe 5263 89bd
00000050: 9357 bdbd 55bf b9be 1823 483d 1030 103e
00000060: 1fc5 0d3c 5192 e83c fecb 06be c7b1 0a3c
00000070: b19a 6e3d 712d 82bd d65c 0cbe b86d ed3d
00000080: 3f3a 2bbe 4ef6 d83c d10d 7bbe c164 b53e
00000090: 946c aabd 371f 82be 931e 02be 220b 8cbd
000000a0: 3ab0 89be cd7f dabc c68f 22be 4f8e a43d
000000b0: 2e96 483e a91b 62bd 24ba 2d3c 85aa 423e
000000c0: 470f 213e 7e8e 31be 3bcf 23bb 3ae6 ec3d
000000d0: 4ea6 453d ea88 5abb 5fed cf3d f0b7 5abe
000000e0: 6aa1 80be 0b6c ee3d ee88 a1bd e0ad e23b
000000f0: cdc3 bd3d 5939 3fbe 9482 253e 1d4b 833c
00000100: 4e1f 03be a150 bfbe a5ef f8bd 1b3d 323e
00000110: 6da4 d7bc 7c34 093d a544 e23d 9480 02be
00000120: 9c8a 303c 41cb 25be c08f 083e 9792 453d
00000130: adda a23d 833a 493d d03a babe 7b47 94be
00000140: e3c1 bd3d eab8 b43c 7efe 103e b8c0 c73d
00000150: edb1 cc3d 7365 263c 810e c73d 052c 903d
00000160: 0969 4ebe dca0 273d d16c 693b 6ea0 9ebd
00000170: 4a2c 7a3e 51b0 21be 390b 94be b008 c2bd
00000180: 9dc0 33be fdfd b3be 682a 7bbe 59cc b43d
00000190: b721 bfbe 4aaf debc 9876 413e 7f1f 17be
000001a0: 968e 7abe bef9 fabd fab9 99be b594 1f3d
000001b0: 4b49 8d3d 10b5 053e 0e2a c93d 7463 0cbe
000001c0: 9314 713e c84c 803c 5671 683d 4796 293d
000001d0: 034f cf3d 37f0 a8bd 2f83 103e 8da4 bc3d
000001e0: 77a9 543d 2954 49be 6143 be3c 5fce 85bd
000001f0: 5d00 20be ece8 8ebd ddf7 4b3d d1fa 0a3d
00000200: bb2c 9ebe f889 723d 24ff ef3d 614d b63d
00000210: 5247 23be bfa0 febd 06f9 b1bd cf06 883e
00000220: 73db c8bd d1bf d1bd b3cf 7cbe 160f 8d3d
00000230: 1cf3 253d ee6f c23d 2658 073e afad e03c
00000240: c392 a5be 0200 85bc ec57 26be eb1b c13d
00000250: bc67 a0bd 65e3 ef3d cad3 603e 7c69 39bd
00000260: ae90 a23d 5db9 1f3c 53c2 3d3e 779c 41be
00000270: bfbe d53d b5d1 a43d 3af1 37be 7909 32be
00000280: db05 f7be 5b1d 53be f333 cb3d f75c 563b
00000290: bba3 4ebe 9e0c e2bc 1ee6 d8bd d184 8ebe
000002a0: a8b3 893d f146 ce3d 4e02 5e3e cb6a 213e
000002b0: 3180 033e 98ba 4b3e 80b3 1abe 7738 9a3b
000002c0: a243 583e 763c 83bd ca6b bbbe 27d8 19be
000002d0: 9c8b 8c3c 4ad1 b6be f587 9dbe fc22 7c3e
000002e0: 2fb1 bdbd eb3b 143e 5eb9 c13d 0410 353c
000002f0: 4195 b43d cf8f a8bd 2674 59be 7f96 e2bb
00000300: 671f b13d 767f d8bc 6545 0b3e 8701 3e3e
00000310: a3dd 52ba a8bc 163e 9598 91be 9627 bc3c
00000320: 30ba b73d 6d98 773d 0c6f 7cbe a16d f9bb
00000330: d8a4 35bd 04fd b93d 0bd0 c9be 0f3b eebd
00000340: 5b02 893c d1ba c63d c4ea cabd 2d1e 97bd
00000350: 2448 81bd f8a7 413e 0417 083c c4dc a2be
00000360: a5bd fb3d 0e5e 44be 7de2 9fbd 774f 7fbd
00000370: b3bc f33c 2020 b53c 543f 3f3e 44dd 83bd
00000380: c88f 20bd 494a eb3c 0508 cfbe c7fb 7cbd
00000390: 4807 863d 9363 393b 2a3a a73d 8109 bf3d
000003a0: 4e20 d8bc 5950 99be 4cc3 dbbe 38c7 09be
000003b0: b59c 7fbd 5a64 0b3d 8352 083d fdaa 123e
000003c0: 1160 7dbd 3792 943d 70e9 063d e151 00be
000003d0: 15a0 473d 698d 723d d233 c33d 3d8c 34be
000003e0: 508a c2be c399 e63d b1d9 1abe 5f31 743d
000003f0: 0ddf 133e 7666 acbd 04c6 08be ecf5 233e

bias f4 [10]
-0.07408456 0.08046275 -0.17238405 -0.038622927 0.019931564 0.04391331 -0.16611062 -0.111828394
0.17269675 0.074009776
00000000: a5b9 97bd a7c9 a43d 7285 30be 1333 1ebd
00000010: 8547 a33c 71de 333d e718 2abe 4906 e5bd
00000020: 6bd7 303e 7092 973d
